…
print(pad_x.shape)   #(15, 5)
word_size = len(token.word_index) + 1
print(word_size)
# pad_x = pad_x.reshape(-1, 5, 1) #2차원을 그냥 LSTM에 넣으면 알아서 돌아?


#2. 모델
model = Sequential()
########################임베딩1
# model.add(Embedding(input_dim=31, output_dim=100, input_length=5))   # 단어 사전의 개수, 출력 노드의 수, 단어의 길이
# 임베딩 연산량 =  input_dim * output_dim = 31 * 100 = 3100
# 임베딩 인풋의 shape : 2차원 , 임베딩의 아웃풋 shape : 3차원   보통 자연어 처리는 임베딩 후 LSTM이 쌍으로 따라간다.
#  Layer (type)                Output Shape              Param #
# =================================================================
#  embedding (Embedding)       (None, 5, 100)            3100
#  lstm (LSTM)                 (None, 10)                4440
#  dense (Dense)               (None, 7)                 77
#  dense_1 (Dense)             (None, 1)                 8
# =================================================================
# Total params: 7,625
# Trainable params: 7,625
# Non-trainable params: 0

######################2 임베딩2
# model.add(Embedding(input_dim=31, output_dim=100)) 

# #  Layer (type)                Output Shape              Param #
# #  embedding (Embedding)       (None, None, 100)         3100
# #  lstm (LSTM)                 (None, 10)                4440
# #  dense (Dense)               (None, 7)                 77
# #  dense_1 (Dense)             (None, 1)                 8

# # Total params: 7,625
# # Trainable params: 7,625
# # Non-trainable params: 0

# model.add(Embedding(input_dim=31, output_dim=100))
# # input_dim=31 # 디폴트
# # input_dim=29 # 단어 사전의 갯수보다 작을 때 .. 연샨량이 줄어, 단어사전에서 임의로 뺴 : 성능 저하 가능성이 있음
# # input_dim=40 # 단어 사전의 갯수보다 클 때  .. 연산량이 늘어, 임의의 랜덤 임베딩 생성 : 성능 저하 가능성이 있음

#################################임베딩 3
# model.add(Embedding(31, 100))   # 잘 동아감
# model.add(Embedding(31, 100, 5))   # 에러 
…
